kfold:  1
Model: "sequential_1"
_________________________________________________________________
Layer (type)                 Output Shape              Param #   
=================================================================
dense_1 (Dense)              (None, 512)               65536     
_________________________________________________________________
dense_2 (Dense)              (None, 256)               131328    
_________________________________________________________________
dense_3 (Dense)              (None, 128)               32896     
_________________________________________________________________
dense_4 (Dense)              (None, 5)                 645       
=================================================================
Total params: 230,405
Trainable params: 230,405
Non-trainable params: 0
_________________________________________________________________
['loss', 'accuracy', 'f1']
accuracy: 89.61%
f1: 89.61%
kfold:  2
Model: "sequential_2"
_________________________________________________________________
Layer (type)                 Output Shape              Param #   
=================================================================
dense_5 (Dense)              (None, 512)               65536     
_________________________________________________________________
dense_6 (Dense)              (None, 256)               131328    
_________________________________________________________________
dense_7 (Dense)              (None, 128)               32896     
_________________________________________________________________
dense_8 (Dense)              (None, 5)                 645       
=================================================================
Total params: 230,405
Trainable params: 230,405
Non-trainable params: 0
_________________________________________________________________
['loss', 'accuracy', 'f1']
accuracy: 89.50%
f1: 89.50%
kfold:  3
Model: "sequential_3"
_________________________________________________________________
Layer (type)                 Output Shape              Param #   
=================================================================
dense_9 (Dense)              (None, 512)               65536     
_________________________________________________________________
dense_10 (Dense)             (None, 256)               131328    
_________________________________________________________________
dense_11 (Dense)             (None, 128)               32896     
_________________________________________________________________
dense_12 (Dense)             (None, 5)                 645       
=================================================================
Total params: 230,405
Trainable params: 230,405
Non-trainable params: 0
_________________________________________________________________
['loss', 'accuracy', 'f1']
accuracy: 89.67%
f1: 89.67%
kfold:  4
Model: "sequential_4"
_________________________________________________________________
Layer (type)                 Output Shape              Param #   
=================================================================
dense_13 (Dense)             (None, 512)               65536     
_________________________________________________________________
dense_14 (Dense)             (None, 256)               131328    
_________________________________________________________________
dense_15 (Dense)             (None, 128)               32896     
_________________________________________________________________
dense_16 (Dense)             (None, 5)                 645       
=================================================================
Total params: 230,405
Trainable params: 230,405
Non-trainable params: 0
_________________________________________________________________
['loss', 'accuracy', 'f1']
accuracy: 89.62%
f1: 89.62%
kfold:  5
Model: "sequential_5"
_________________________________________________________________
Layer (type)                 Output Shape              Param #   
=================================================================
dense_17 (Dense)             (None, 512)               65536     
_________________________________________________________________
dense_18 (Dense)             (None, 256)               131328    
_________________________________________________________________
dense_19 (Dense)             (None, 128)               32896     
_________________________________________________________________
dense_20 (Dense)             (None, 5)                 645       
=================================================================
Total params: 230,405
Trainable params: 230,405
Non-trainable params: 0
_________________________________________________________________
['loss', 'accuracy', 'f1']
accuracy: 89.59%
f1: 89.59%



 ========= New Model =========
kfold:  1
Model: "sequential_6"
_________________________________________________________________
Layer (type)                 Output Shape              Param #   
=================================================================
dense_21 (Dense)             (None, 256)               32768     
_________________________________________________________________
dense_22 (Dense)             (None, 128)               32896     
_________________________________________________________________
dense_23 (Dense)             (None, 64)                8256      
_________________________________________________________________
dense_24 (Dense)             (None, 32)                2080      
_________________________________________________________________
dense_25 (Dense)             (None, 5)                 165       
=================================================================
Total params: 76,165
Trainable params: 76,165
Non-trainable params: 0
_________________________________________________________________
['loss', 'accuracy', 'f1']
accuracy: 89.61%
f1: 89.61%
kfold:  2
Model: "sequential_7"
_________________________________________________________________
Layer (type)                 Output Shape              Param #   
=================================================================
dense_26 (Dense)             (None, 256)               32768     
_________________________________________________________________
dense_27 (Dense)             (None, 128)               32896     
_________________________________________________________________
dense_28 (Dense)             (None, 64)                8256      
_________________________________________________________________
dense_29 (Dense)             (None, 32)                2080      
_________________________________________________________________
dense_30 (Dense)             (None, 5)                 165       
=================================================================
Total params: 76,165
Trainable params: 76,165
Non-trainable params: 0
_________________________________________________________________
['loss', 'accuracy', 'f1']
accuracy: 89.50%
f1: 89.50%
kfold:  3
Model: "sequential_8"
_________________________________________________________________
Layer (type)                 Output Shape              Param #   
=================================================================
dense_31 (Dense)             (None, 256)               32768     
_________________________________________________________________
dense_32 (Dense)             (None, 128)               32896     
_________________________________________________________________
dense_33 (Dense)             (None, 64)                8256      
_________________________________________________________________
dense_34 (Dense)             (None, 32)                2080      
_________________________________________________________________
dense_35 (Dense)             (None, 5)                 165       
=================================================================
Total params: 76,165
Trainable params: 76,165
Non-trainable params: 0
_________________________________________________________________
['loss', 'accuracy', 'f1']
accuracy: 89.67%
f1: 89.67%
kfold:  4
Model: "sequential_9"
_________________________________________________________________
Layer (type)                 Output Shape              Param #   
=================================================================
dense_36 (Dense)             (None, 256)               32768     
_________________________________________________________________
dense_37 (Dense)             (None, 128)               32896     
_________________________________________________________________
dense_38 (Dense)             (None, 64)                8256      
_________________________________________________________________
dense_39 (Dense)             (None, 32)                2080      
_________________________________________________________________
dense_40 (Dense)             (None, 5)                 165       
=================================================================
Total params: 76,165
Trainable params: 76,165
Non-trainable params: 0
_________________________________________________________________
['loss', 'accuracy', 'f1']
accuracy: 89.62%
f1: 89.62%
kfold:  5
Model: "sequential_10"
_________________________________________________________________
Layer (type)                 Output Shape              Param #   
=================================================================
dense_41 (Dense)             (None, 256)               32768     
_________________________________________________________________
dense_42 (Dense)             (None, 128)               32896     
_________________________________________________________________
dense_43 (Dense)             (None, 64)                8256      
_________________________________________________________________
dense_44 (Dense)             (None, 32)                2080      
_________________________________________________________________
dense_45 (Dense)             (None, 5)                 165       
=================================================================
Total params: 76,165
Trainable params: 76,165
Non-trainable params: 0
_________________________________________________________________
['loss', 'accuracy', 'f1']
accuracy: 89.59%
f1: 89.59%



 ========= New Model =========
kfold:  1
Model: "sequential_11"
_________________________________________________________________
Layer (type)                 Output Shape              Param #   
=================================================================
dense_46 (Dense)             (None, 512)               65536     
_________________________________________________________________
dense_47 (Dense)             (None, 256)               131328    
_________________________________________________________________
dense_48 (Dense)             (None, 128)               32896     
_________________________________________________________________
dense_49 (Dense)             (None, 64)                8256      
_________________________________________________________________
dense_50 (Dense)             (None, 5)                 325       
=================================================================
Total params: 238,341
Trainable params: 238,341
Non-trainable params: 0
_________________________________________________________________
['loss', 'accuracy', 'f1']
accuracy: 89.61%
f1: 89.61%
kfold:  2
Model: "sequential_12"
_________________________________________________________________
Layer (type)                 Output Shape              Param #   
=================================================================
dense_51 (Dense)             (None, 512)               65536     
_________________________________________________________________
dense_52 (Dense)             (None, 256)               131328    
_________________________________________________________________
dense_53 (Dense)             (None, 128)               32896     
_________________________________________________________________
dense_54 (Dense)             (None, 64)                8256      
_________________________________________________________________
dense_55 (Dense)             (None, 5)                 325       
=================================================================
Total params: 238,341
Trainable params: 238,341
Non-trainable params: 0
_________________________________________________________________
['loss', 'accuracy', 'f1']
accuracy: 89.50%
f1: 89.50%
kfold:  3
Model: "sequential_13"
_________________________________________________________________
Layer (type)                 Output Shape              Param #   
=================================================================
dense_56 (Dense)             (None, 512)               65536     
_________________________________________________________________
dense_57 (Dense)             (None, 256)               131328    
_________________________________________________________________
dense_58 (Dense)             (None, 128)               32896     
_________________________________________________________________
dense_59 (Dense)             (None, 64)                8256      
_________________________________________________________________
dense_60 (Dense)             (None, 5)                 325       
=================================================================
Total params: 238,341
Trainable params: 238,341
Non-trainable params: 0
_________________________________________________________________
['loss', 'accuracy', 'f1']
accuracy: 89.67%
f1: 89.67%
kfold:  4
Model: "sequential_14"
_________________________________________________________________
Layer (type)                 Output Shape              Param #   
=================================================================
dense_61 (Dense)             (None, 512)               65536     
_________________________________________________________________
dense_62 (Dense)             (None, 256)               131328    
_________________________________________________________________
dense_63 (Dense)             (None, 128)               32896     
_________________________________________________________________
dense_64 (Dense)             (None, 64)                8256      
_________________________________________________________________
dense_65 (Dense)             (None, 5)                 325       
=================================================================
Total params: 238,341
Trainable params: 238,341
Non-trainable params: 0
_________________________________________________________________
['loss', 'accuracy', 'f1']
accuracy: 89.62%
f1: 89.62%
kfold:  5
Model: "sequential_15"
_________________________________________________________________
Layer (type)                 Output Shape              Param #   
=================================================================
dense_66 (Dense)             (None, 512)               65536     
_________________________________________________________________
dense_67 (Dense)             (None, 256)               131328    
_________________________________________________________________
dense_68 (Dense)             (None, 128)               32896     
_________________________________________________________________
dense_69 (Dense)             (None, 64)                8256      
_________________________________________________________________
dense_70 (Dense)             (None, 5)                 325       
=================================================================
Total params: 238,341
Trainable params: 238,341
Non-trainable params: 0
_________________________________________________________________
['loss', 'accuracy', 'f1']
accuracy: 89.59%
f1: 89.59%



 ========= New Model =========
kfold:  1
Model: "sequential_16"
_________________________________________________________________
Layer (type)                 Output Shape              Param #   
=================================================================
dense_71 (Dense)             (None, 512)               65536     
_________________________________________________________________
dense_72 (Dense)             (None, 256)               131328    
_________________________________________________________________
dense_73 (Dense)             (None, 128)               32896     
_________________________________________________________________
dense_74 (Dense)             (None, 64)                8256      
_________________________________________________________________
dense_75 (Dense)             (None, 32)                2080      
_________________________________________________________________
dense_76 (Dense)             (None, 5)                 165       
=================================================================
Total params: 240,261
Trainable params: 240,261
Non-trainable params: 0
_________________________________________________________________
['loss', 'accuracy', 'f1']
accuracy: 89.61%
f1: 89.61%
kfold:  2
Model: "sequential_17"
_________________________________________________________________
Layer (type)                 Output Shape              Param #   
=================================================================
dense_77 (Dense)             (None, 512)               65536     
_________________________________________________________________
dense_78 (Dense)             (None, 256)               131328    
_________________________________________________________________
dense_79 (Dense)             (None, 128)               32896     
_________________________________________________________________
dense_80 (Dense)             (None, 64)                8256      
_________________________________________________________________
dense_81 (Dense)             (None, 32)                2080      
_________________________________________________________________
dense_82 (Dense)             (None, 5)                 165       
=================================================================
Total params: 240,261
Trainable params: 240,261
Non-trainable params: 0
_________________________________________________________________
['loss', 'accuracy', 'f1']
accuracy: 89.50%
f1: 89.50%
kfold:  3
Model: "sequential_18"
_________________________________________________________________
Layer (type)                 Output Shape              Param #   
=================================================================
dense_83 (Dense)             (None, 512)               65536     
_________________________________________________________________
dense_84 (Dense)             (None, 256)               131328    
_________________________________________________________________
dense_85 (Dense)             (None, 128)               32896     
_________________________________________________________________
dense_86 (Dense)             (None, 64)                8256      
_________________________________________________________________
dense_87 (Dense)             (None, 32)                2080      
_________________________________________________________________
dense_88 (Dense)             (None, 5)                 165       
=================================================================
Total params: 240,261
Trainable params: 240,261
Non-trainable params: 0
_________________________________________________________________
['loss', 'accuracy', 'f1']
accuracy: 89.67%
f1: 89.67%
kfold:  4
Model: "sequential_19"
_________________________________________________________________
Layer (type)                 Output Shape              Param #   
=================================================================
dense_89 (Dense)             (None, 512)               65536     
_________________________________________________________________
dense_90 (Dense)             (None, 256)               131328    
_________________________________________________________________
dense_91 (Dense)             (None, 128)               32896     
_________________________________________________________________
dense_92 (Dense)             (None, 64)                8256      
_________________________________________________________________
dense_93 (Dense)             (None, 32)                2080      
_________________________________________________________________
dense_94 (Dense)             (None, 5)                 165       
=================================================================
Total params: 240,261
Trainable params: 240,261
Non-trainable params: 0
_________________________________________________________________
['loss', 'accuracy', 'f1']
accuracy: 89.62%
f1: 89.62%
kfold:  5
Model: "sequential_20"
_________________________________________________________________
Layer (type)                 Output Shape              Param #   
=================================================================
dense_95 (Dense)             (None, 512)               65536     
_________________________________________________________________
dense_96 (Dense)             (None, 256)               131328    
_________________________________________________________________
dense_97 (Dense)             (None, 128)               32896     
_________________________________________________________________
dense_98 (Dense)             (None, 64)                8256      
_________________________________________________________________
dense_99 (Dense)             (None, 32)                2080      
_________________________________________________________________
dense_100 (Dense)            (None, 5)                 165       
=================================================================
Total params: 240,261
Trainable params: 240,261
Non-trainable params: 0
_________________________________________________________________
['loss', 'accuracy', 'f1']
accuracy: 89.59%
f1: 89.59%



 ========= New Model =========
kfold:  1
Model: "sequential_21"
_________________________________________________________________
Layer (type)                 Output Shape              Param #   
=================================================================
dense_101 (Dense)            (None, 1024)              131072    
_________________________________________________________________
dense_102 (Dense)            (None, 512)               524800    
_________________________________________________________________
dense_103 (Dense)            (None, 256)               131328    
_________________________________________________________________
dense_104 (Dense)            (None, 128)               32896     
_________________________________________________________________
dense_105 (Dense)            (None, 64)                8256      
_________________________________________________________________
dense_106 (Dense)            (None, 5)                 325       
=================================================================
Total params: 828,677
Trainable params: 828,677
Non-trainable params: 0
_________________________________________________________________
['loss', 'accuracy', 'f1']
accuracy: 89.61%
f1: 89.61%
kfold:  2
Model: "sequential_22"
_________________________________________________________________
Layer (type)                 Output Shape              Param #   
=================================================================
dense_107 (Dense)            (None, 1024)              131072    
_________________________________________________________________
dense_108 (Dense)            (None, 512)               524800    
_________________________________________________________________
dense_109 (Dense)            (None, 256)               131328    
_________________________________________________________________
dense_110 (Dense)            (None, 128)               32896     
_________________________________________________________________
dense_111 (Dense)            (None, 64)                8256      
_________________________________________________________________
dense_112 (Dense)            (None, 5)                 325       
=================================================================
Total params: 828,677
Trainable params: 828,677
Non-trainable params: 0
_________________________________________________________________
['loss', 'accuracy', 'f1']
accuracy: 89.50%
f1: 89.50%
kfold:  3
Model: "sequential_23"
_________________________________________________________________
Layer (type)                 Output Shape              Param #   
=================================================================
dense_113 (Dense)            (None, 1024)              131072    
_________________________________________________________________
dense_114 (Dense)            (None, 512)               524800    
_________________________________________________________________
dense_115 (Dense)            (None, 256)               131328    
_________________________________________________________________
dense_116 (Dense)            (None, 128)               32896     
_________________________________________________________________
dense_117 (Dense)            (None, 64)                8256      
_________________________________________________________________
dense_118 (Dense)            (None, 5)                 325       
=================================================================
Total params: 828,677
Trainable params: 828,677
Non-trainable params: 0
_________________________________________________________________
['loss', 'accuracy', 'f1']
accuracy: 89.67%
f1: 89.67%
kfold:  4
Model: "sequential_24"
_________________________________________________________________
Layer (type)                 Output Shape              Param #   
=================================================================
dense_119 (Dense)            (None, 1024)              131072    
_________________________________________________________________
dense_120 (Dense)            (None, 512)               524800    
_________________________________________________________________
dense_121 (Dense)            (None, 256)               131328    
_________________________________________________________________
dense_122 (Dense)            (None, 128)               32896     
_________________________________________________________________
dense_123 (Dense)            (None, 64)                8256      
_________________________________________________________________
dense_124 (Dense)            (None, 5)                 325       
=================================================================
Total params: 828,677
Trainable params: 828,677
Non-trainable params: 0
_________________________________________________________________
['loss', 'accuracy', 'f1']
accuracy: 89.62%
f1: 89.62%
kfold:  5
Model: "sequential_25"
_________________________________________________________________
Layer (type)                 Output Shape              Param #   
=================================================================
dense_125 (Dense)            (None, 1024)              131072    
_________________________________________________________________
dense_126 (Dense)            (None, 512)               524800    
_________________________________________________________________
dense_127 (Dense)            (None, 256)               131328    
_________________________________________________________________
dense_128 (Dense)            (None, 128)               32896     
_________________________________________________________________
dense_129 (Dense)            (None, 64)                8256      
_________________________________________________________________
dense_130 (Dense)            (None, 5)                 325       
=================================================================
Total params: 828,677
Trainable params: 828,677
Non-trainable params: 0
_________________________________________________________________
['loss', 'accuracy', 'f1']
accuracy: 89.59%
f1: 89.59%
